Total scaffolds = 1,965 | 
split 0 scaffolds = 59 | 
split 1 scaffolds = 1,906 | 
Start a new active learning run.
Start active learning: 
Training set size = 2
Pool set size = 220
Validation set size = 1995
selection method: ExplorativeSelectionMethod(batch_size=1)

Start an new iteration of active learning: 0.
evaluating model performance.
Building model 0 from scratch
MoleculeModel(
  (sigmoid): Sigmoid()
  (encoder): MPN(
    (encoder): ModuleList(
      (0): MPNEncoder(
        (dropout_layer): Dropout(p=0.1, inplace=False)
        (act_func): ReLU()
        (W_i): Linear(in_features=147, out_features=300, bias=False)
        (W_h): Linear(in_features=300, out_features=300, bias=False)
        (W_o): Linear(in_features=433, out_features=300, bias=True)
      )
    )
  )
  (ffn): Sequential(
    (0): Dropout(p=0.1, inplace=False)
    (1): Linear(in_features=1324, out_features=300, bias=True)
    (2): ReLU()
    (3): Dropout(p=0.1, inplace=False)
    (4): Linear(in_features=300, out_features=1, bias=True)
  )
)
Number of parameters = 662,401
Epoch 0
Loss = 6.8875e-01, PNorm = 36.5944, GNorm = 4.7634, lr_0 = 1.0000e-03
Epoch 1
Loss = 3.8003e-01, PNorm = 36.6001, GNorm = 3.0453, lr_0 = 9.2106e-04
Epoch 2
Loss = 1.9079e-01, PNorm = 36.6079, GNorm = 1.7798, lr_0 = 8.4834e-04
Epoch 3
Loss = 7.3766e-02, PNorm = 36.6165, GNorm = 0.7200, lr_0 = 7.8137e-04
Epoch 4
…
Loss = 1.5112e-01, PNorm = 36.6223, GNorm = 0.9838, lr_0 = 7.8137e-04
Epoch 4
Epoch 5
Epoch 6
Epoch 7
Epoch 8
Epoch 9
Epoch 10
Epoch 11
Epoch 12
Epoch 13
Epoch 14
Epoch 15
Epoch 16
Epoch 17
Epoch 18
Epoch 19
Epoch 20
Epoch 21
Epoch 22
Epoch 23
Epoch 24
Epoch 25
Epoch 26
Epoch 27
Epoch 28
Epoch 29
evaluating model performance finished.
Training set size = 13
Pool set size = 209
Start an new iteration of active learning: 11.
Building model 0 from scratch
MoleculeModel(
  (sigmoid): Sigmoid()
  (encoder): MPN(
    (encoder): ModuleList(
      (0): MPNEncoder(
        (dropout_layer): Dropout(p=0.1, inplace=False)
        (act_func): ReLU()
        (W_i): Linear(in_features=147, out_features=300, bias=False)
        (W_h): Linear(in_features=300, out_features=300, bias=False)
        (W_o): Linear(in_features=433, out_features=300, bias=True)
      )
    )
  )
  (ffn): Sequential(
    (0): Dropout(p=0.1, inplace=False)
    (1): Linear(in_features=1324, out_features=300, bias=True)
    (2): ReLU()
    (3): Dropout(p=0.1, inplace=False)
    (4): Linear(in_features=300, out_features=1, bias=True)
  )
)
Number of parameters = 662,401
Epoch 0
Loss = 7.7190e-01, PNorm = 36.5941, GNorm = 3.1544, lr_0 = 1.0000e-03
Epoch 1
Loss = 6.0822e-01, PNorm = 36.6003, GNorm = 2.6924, lr_0 = 9.2106e-04
Epoch 2
Loss = 3.1855e-01, PNorm = 36.6096, GNorm = 1.6805, lr_0 = 8.4834e-04
Epoch 3
Epoch 4
Epoch 5
Epoch 6
Epoch 7
Epoch 8
Epoch 9
Epoch 10
Epoch 11
Epoch 12
Epoch 13
Epoch 14
Epoch 15
Epoch 16
Epoch 17
Epoch 18
Epoch 19
Epoch 20
Epoch 21
Epoch 22
Epoch 23
Epoch 24
Epoch 25
Epoch 26
Epoch 27
Epoch 28
Epoch 29
Training set size = 14
Pool set size = 208
Start an new iteration of active learning: 12.
Building model 0 from scratch
MoleculeModel(
  (sigmoid): Sigmoid()
  (encoder): MPN(
    (encoder): ModuleList(
      (0): MPNEncoder(
        (dropout_layer): Dropout(p=0.1, inplace=False)
        (act_func): ReLU()
        (W_i): Linear(in_features=147, out_features=300, bias=False)
        (W_h): Linear(in_features=300, out_features=300, bias=False)
        (W_o): Linear(in_features=433, out_features=300, bias=True)
      )
    )
  )
  (ffn): Sequential(
    (0): Dropout(p=0.1, inplace=False)
    (1): Linear(in_features=1324, out_features=300, bias=True)
    (2): ReLU()
    (3): Dropout(p=0.1, inplace=False)
    (4): Linear(in_features=300, out_features=1, bias=True)
  )
)
Number of parameters = 662,401
Epoch 0
Loss = 7.4276e-01, PNorm = 36.5942, GNorm = 3.0654, lr_0 = 1.0000e-03
Epoch 1
Loss = 6.0808e-01, PNorm = 36.6004, GNorm = 2.7676, lr_0 = 9.2106e-04
Epoch 2
Loss = 2.8142e-01, PNorm = 36.6103, GNorm = 1.4943, lr_0 = 8.4834e-04
Epoch 3
Epoch 4
Epoch 5
Epoch 6
Epoch 7
Epoch 8
Epoch 9
Epoch 10
Epoch 11
Epoch 12
Epoch 13
Epoch 14
Epoch 15
Epoch 16
Epoch 17
Epoch 18
Epoch 19
Epoch 20
Epoch 21
Epoch 22
Epoch 23
Epoch 24
Epoch 25
Epoch 26
Epoch 27
Epoch 28
Epoch 29
Training set size = 15
Pool set size = 207
Start an new iteration of active learning: 13.
Building model 0 from scratch
MoleculeModel(
  (sigmoid): Sigmoid()
  (encoder): MPN(
    (encoder): ModuleList(
      (0): MPNEncoder(
        (dropout_layer): Dropout(p=0.1, inplace=False)
        (act_func): ReLU()
        (W_i): Linear(in_features=147, out_features=300, bias=False)
        (W_h): Linear(in_features=300, out_features=300, bias=False)
        (W_o): Linear(in_features=433, out_features=300, bias=True)
      )
    )
  )
  (ffn): Sequential(
    (0): Dropout(p=0.1, inplace=False)
    (1): Linear(in_features=1324, out_features=300, bias=True)
    (2): ReLU()
    (3): Dropout(p=0.1, inplace=False)
    (4): Linear(in_features=300, out_features=1, bias=True)
  )
)
Number of parameters = 662,401
Epoch 0
Loss = 7.4513e-01, PNorm = 36.5944, GNorm = 3.1187, lr_0 = 1.0000e-03
Epoch 1
Loss = 5.5736e-01, PNorm = 36.6012, GNorm = 2.3710, lr_0 = 9.2106e-04
Epoch 2
Loss = 2.8417e-01, PNorm = 36.6116, GNorm = 1.4621, lr_0 = 8.4834e-04
Epoch 3
Epoch 4
Epoch 5
Epoch 6
Epoch 7
Epoch 8
Epoch 9
Epoch 10
Epoch 11
Epoch 12
Epoch 13
Epoch 14
Epoch 15
Epoch 16
Epoch 17
Epoch 18
Epoch 19
Epoch 20
Epoch 21
Epoch 22
Epoch 23
Epoch 24
Epoch 25
Epoch 26
Epoch 27
Epoch 28
Epoch 29
Training set size = 16
Pool set size = 206
Start an new iteration of active learning: 14.
Building model 0 from scratch
MoleculeModel(
  (sigmoid): Sigmoid()
  (encoder): MPN(
    (encoder): ModuleList(
      (0): MPNEncoder(
        (dropout_layer): Dropout(p=0.1, inplace=False)
        (act_func): ReLU()
        (W_i): Linear(in_features=147, out_features=300, bias=False)
        (W_h): Linear(in_features=300, out_features=300, bias=False)
        (W_o): Linear(in_features=433, out_features=300, bias=True)
      )
    )
  )
  (ffn): Sequential(
    (0): Dropout(p=0.1, inplace=False)
    (1): Linear(in_features=1324, out_features=300, bias=True)
    (2): ReLU()
    (3): Dropout(p=0.1, inplace=False)
    (4): Linear(in_features=300, out_features=1, bias=True)
  )
)
Number of parameters = 662,401
Epoch 0
Loss = 8.1716e-01, PNorm = 36.5942, GNorm = 3.1475, lr_0 = 1.0000e-03
Epoch 1
Loss = 5.5705e-01, PNorm = 36.6005, GNorm = 2.5007, lr_0 = 9.2106e-04
Epoch 2
Loss = 2.6084e-01, PNorm = 36.6101, GNorm = 1.2678, lr_0 = 8.4834e-04
Epoch 3
Epoch 4
Epoch 5
Epoch 6
Epoch 7
Epoch 8
Epoch 9
Epoch 10
Epoch 11
Epoch 12
Epoch 13
Epoch 14
Epoch 15
Epoch 16
Epoch 17
Epoch 18
Epoch 19
Epoch 20
Epoch 21
Epoch 22
Epoch 23
Epoch 24
Epoch 25
Epoch 26
Epoch 27
Epoch 28
Epoch 29
Training set size = 17
Pool set size = 205
Start an new iteration of active learning: 15.
Building model 0 from scratch
MoleculeModel(
  (sigmoid): Sigmoid()
  (encoder): MPN(
    (encoder): ModuleList(
      (0): MPNEncoder(
        (dropout_layer): Dropout(p=0.1, inplace=False)
        (act_func): ReLU()
        (W_i): Linear(in_features=147, out_features=300, bias=False)
        (W_h): Linear(in_features=300, out_features=300, bias=False)
        (W_o): Linear(in_features=433, out_features=300, bias=True)
      )
    )
  )
  (ffn): Sequential(
    (0): Dropout(p=0.1, inplace=False)
    (1): Linear(in_features=1324, out_features=300, bias=True)
    (2): ReLU()
    (3): Dropout(p=0.1, inplace=False)
    (4): Linear(in_features=300, out_features=1, bias=True)
  )
)
Number of parameters = 662,401
Epoch 0
Loss = 7.1212e-01, PNorm = 36.5949, GNorm = 2.8300, lr_0 = 1.0000e-03
Epoch 1
Loss = 6.0448e-01, PNorm = 36.6026, GNorm = 2.4650, lr_0 = 9.2106e-04
Epoch 2
Epoch 3
Epoch 4
Epoch 5
Epoch 6
Epoch 7
Epoch 8
Epoch 9
Epoch 10
Epoch 11
Epoch 12
Epoch 13
Epoch 14
Epoch 15
Epoch 16
Epoch 17
Epoch 18
Epoch 19
Epoch 20
Epoch 21
Epoch 22
Epoch 23
Epoch 24
Epoch 25
Epoch 26
Epoch 27
Epoch 28
Epoch 29
Loss = 2.7794e-03, PNorm = 36.7301, GNorm = 0.0325, lr_0 = 1.0000e-04
Training set size = 18
Pool set size = 204
Start an new iteration of active learning: 16.
Building model 0 from scratch
MoleculeModel(
  (sigmoid): Sigmoid()
  (encoder): MPN(
    (encoder): ModuleList(
      (0): MPNEncoder(
        (dropout_layer): Dropout(p=0.1, inplace=False)
        (act_func): ReLU()
        (W_i): Linear(in_features=147, out_features=300, bias=False)
        (W_h): Linear(in_features=300, out_features=300, bias=False)
        (W_o): Linear(in_features=433, out_features=300, bias=True)
      )
    )
  )
  (ffn): Sequential(
    (0): Dropout(p=0.1, inplace=False)
    (1): Linear(in_features=1324, out_features=300, bias=True)
    (2): ReLU()
    (3): Dropout(p=0.1, inplace=False)
    (4): Linear(in_features=300, out_features=1, bias=True)
  )
)
Number of parameters = 662,401
Epoch 0
Loss = 7.8414e-01, PNorm = 36.5940, GNorm = 3.0534, lr_0 = 1.0000e-03
Epoch 1
Loss = 6.0456e-01, PNorm = 36.6006, GNorm = 2.4586, lr_0 = 9.2106e-04
Epoch 2
Epoch 3
Epoch 4
Epoch 5
Epoch 6
Epoch 7
Epoch 8
Epoch 9
Epoch 10
Epoch 11
Epoch 12
Epoch 13
Epoch 14
Epoch 15
Epoch 16
Epoch 17
Epoch 18
Epoch 19
Epoch 20
Epoch 21
…
Epoch 14
Epoch 15
Epoch 16
Epoch 17
Epoch 18
Epoch 19
Epoch 20
Loss = 3.3004e-03, PNorm = 36.7252, GNorm = 0.0475, lr_0 = 1.9307e-04
Epoch 21
Loss = 3.6470e-03, PNorm = 36.7265, GNorm = 0.0411, lr_0 = 1.7783e-04
Epoch 22
Epoch 23
Epoch 24
Epoch 25
Epoch 26
Epoch 27
Epoch 28
Epoch 29
Training set size = 25
Pool set size = 197
Start an new iteration of active learning: 23.
Building model 0 from scratch
MoleculeModel(
  (sigmoid): Sigmoid()
  (encoder): MPN(
    (encoder): ModuleList(
      (0): MPNEncoder(
        (dropout_layer): Dropout(p=0.1, inplace=False)
        (act_func): ReLU()
        (W_i): Linear(in_features=147, out_features=300, bias=False)
        (W_h): Linear(in_features=300, out_features=300, bias=False)
        (W_o): Linear(in_features=433, out_features=300, bias=True)
      )
    )
  )
  (ffn): Sequential(
    (0): Dropout(p=0.1, inplace=False)
    (1): Linear(in_features=1324, out_features=300, bias=True)
    (2): ReLU()
    (3): Dropout(p=0.1, inplace=False)
    (4): Linear(in_features=300, out_features=1, bias=True)
  )
)
Number of parameters = 662,401
Epoch 0
Loss = 7.4397e-01, PNorm = 36.5942, GNorm = 2.6624, lr_0 = 1.0000e-03
Epoch 1
Epoch 2
Epoch 3
Epoch 4
Epoch 5
Epoch 6
Epoch 7
Epoch 8
Epoch 9
Epoch 10
Epoch 11
Epoch 12
Epoch 13
Epoch 14
Epoch 15
Epoch 16
Epoch 17
Epoch 18
Epoch 19
Loss = 2.9514e-03, PNorm = 36.7269, GNorm = 0.0295, lr_0 = 2.0962e-04
Epoch 20
Loss = 2.7939e-03, PNorm = 36.7285, GNorm = 0.0276, lr_0 = 1.9307e-04
Epoch 21
Epoch 22
Epoch 23
Epoch 24
Epoch 25
Epoch 26
Epoch 27
Epoch 28
Epoch 29
Training set size = 26
Pool set size = 196
Start an new iteration of active learning: 24.
Building model 0 from scratch
MoleculeModel(
  (sigmoid): Sigmoid()
  (encoder): MPN(
    (encoder): ModuleList(
      (0): MPNEncoder(
        (dropout_layer): Dropout(p=0.1, inplace=False)
        (act_func): ReLU()
        (W_i): Linear(in_features=147, out_features=300, bias=False)
        (W_h): Linear(in_features=300, out_features=300, bias=False)
        (W_o): Linear(in_features=433, out_features=300, bias=True)
      )
    )
  )
  (ffn): Sequential(
    (0): Dropout(p=0.1, inplace=False)
    (1): Linear(in_features=1324, out_features=300, bias=True)
    (2): ReLU()
    (3): Dropout(p=0.1, inplace=False)
    (4): Linear(in_features=300, out_features=1, bias=True)
  )
)
Number of parameters = 662,401
Epoch 0
Loss = 7.6560e-01, PNorm = 36.5942, GNorm = 2.6703, lr_0 = 1.0000e-03
Epoch 1
Epoch 2
Epoch 3
Epoch 4
Epoch 5
Epoch 6
Epoch 7
Epoch 8
Epoch 9
Epoch 10
Epoch 11
Epoch 12
Epoch 13
Epoch 14
Epoch 15
Epoch 16
Epoch 17
Epoch 18
Epoch 19
Loss = 3.6889e-03, PNorm = 36.7246, GNorm = 0.0462, lr_0 = 2.0962e-04
Epoch 20
Loss = 6.8005e-03, PNorm = 36.7260, GNorm = 0.0943, lr_0 = 1.9307e-04
Epoch 21
Epoch 22
Epoch 23
Epoch 24
Epoch 25
Epoch 26
Epoch 27
Epoch 28
Epoch 29
Training set size = 27
Pool set size = 195
Start an new iteration of active learning: 25.
Building model 0 from scratch
MoleculeModel(
  (sigmoid): Sigmoid()
  (encoder): MPN(
    (encoder): ModuleList(
      (0): MPNEncoder(
        (dropout_layer): Dropout(p=0.1, inplace=False)
        (act_func): ReLU()
        (W_i): Linear(in_features=147, out_features=300, bias=False)
        (W_h): Linear(in_features=300, out_features=300, bias=False)
        (W_o): Linear(in_features=433, out_features=300, bias=True)
      )
    )
  )
  (ffn): Sequential(
    (0): Dropout(p=0.1, inplace=False)
    (1): Linear(in_features=1324, out_features=300, bias=True)
    (2): ReLU()
    (3): Dropout(p=0.1, inplace=False)
    (4): Linear(in_features=300, out_features=1, bias=True)
  )
)
Number of parameters = 662,401
Epoch 0
Loss = 7.5478e-01, PNorm = 36.5945, GNorm = 2.5892, lr_0 = 1.0000e-03
Epoch 1
Epoch 2
Epoch 3
Epoch 4
Epoch 5
Epoch 6
Epoch 7
Epoch 8
Epoch 9
Epoch 10
Epoch 11
Epoch 12
Epoch 13
Epoch 14
Epoch 15
Epoch 16
Epoch 17
Epoch 18
Loss = 4.3813e-03, PNorm = 36.7291, GNorm = 0.0527, lr_0 = 2.2758e-04
Epoch 19
Loss = 5.4854e-03, PNorm = 36.7309, GNorm = 0.0502, lr_0 = 2.0962e-04
Epoch 20
Epoch 21
Epoch 22
Epoch 23
Epoch 24
Epoch 25
Epoch 26
Epoch 27
Epoch 28
Epoch 29
Training set size = 28
Pool set size = 194
Start an new iteration of active learning: 26.
Building model 0 from scratch
MoleculeModel(
  (sigmoid): Sigmoid()
  (encoder): MPN(
    (encoder): ModuleList(
      (0): MPNEncoder(
        (dropout_layer): Dropout(p=0.1, inplace=False)
        (act_func): ReLU()
        (W_i): Linear(in_features=147, out_features=300, bias=False)
        (W_h): Linear(in_features=300, out_features=300, bias=False)
        (W_o): Linear(in_features=433, out_features=300, bias=True)
      )
    )
  )
  (ffn): Sequential(
    (0): Dropout(p=0.1, inplace=False)
    (1): Linear(in_features=1324, out_features=300, bias=True)
    (2): ReLU()
    (3): Dropout(p=0.1, inplace=False)
    (4): Linear(in_features=300, out_features=1, bias=True)
  )
)
Number of parameters = 662,401
Epoch 0
Loss = 6.9078e-01, PNorm = 36.5948, GNorm = 2.5062, lr_0 = 1.0000e-03
Epoch 1
Epoch 2
Epoch 3
Epoch 4
Epoch 5
Epoch 6
Epoch 7
Epoch 8
Epoch 9
Epoch 10
Epoch 11
Epoch 12
Epoch 13
Epoch 14
Epoch 15
Epoch 16
Epoch 17
Loss = 4.7109e-03, PNorm = 36.7288, GNorm = 0.0436, lr_0 = 2.4709e-04
Epoch 18
Loss = 3.9490e-03, PNorm = 36.7309, GNorm = 0.0440, lr_0 = 2.2758e-04
Epoch 19
Epoch 20
Epoch 21
Epoch 22
Epoch 23
Epoch 24
Epoch 25
Epoch 26
Epoch 27
Epoch 28
Epoch 29
Training set size = 29
Pool set size = 193
Start an new iteration of active learning: 27.
Building model 0 from scratch
MoleculeModel(
  (sigmoid): Sigmoid()
  (encoder): MPN(
    (encoder): ModuleList(
      (0): MPNEncoder(
        (dropout_layer): Dropout(p=0.1, inplace=False)
        (act_func): ReLU()
        (W_i): Linear(in_features=147, out_features=300, bias=False)
        (W_h): Linear(in_features=300, out_features=300, bias=False)
        (W_o): Linear(in_features=433, out_features=300, bias=True)
      )
    )
  )
  (ffn): Sequential(
    (0): Dropout(p=0.1, inplace=False)
    (1): Linear(in_features=1324, out_features=300, bias=True)
    (2): ReLU()
    (3): Dropout(p=0.1, inplace=False)
    (4): Linear(in_features=300, out_features=1, bias=True)
  )
)
Number of parameters = 662,401
Epoch 0
Loss = 6.4040e-01, PNorm = 36.5950, GNorm = 2.3709, lr_0 = 1.0000e-03
Epoch 1
Epoch 2
Epoch 3
Epoch 4
Epoch 5
Epoch 6
Epoch 7
Epoch 8
Epoch 9
Epoch 10
Epoch 11
Epoch 12
Epoch 13
Epoch 14
Epoch 15
Epoch 16
Epoch 17
Loss = 3.3041e-03, PNorm = 36.7304, GNorm = 0.0353, lr_0 = 2.4709e-04
Epoch 18
Epoch 19
Epoch 20
Epoch 21
Epoch 22
Epoch 23
Epoch 24
Epoch 25
Epoch 26
Epoch 27
Epoch 28
Epoch 29
Training set size = 30
Pool set size = 192
Start an new iteration of active learning: 28.
Building model 0 from scratch
MoleculeModel(
  (sigmoid): Sigmoid()
  (encoder): MPN(
    (encoder): ModuleList(
      (0): MPNEncoder(
        (dropout_layer): Dropout(p=0.1, inplace=False)
        (act_func): ReLU()
        (W_i): Linear(in_features=147, out_features=300, bias=False)
        (W_h): Linear(in_features=300, out_features=300, bias=False)
        (W_o): Linear(in_features=433, out_features=300, bias=True)
      )
    )
  )
  (ffn): Sequential(
    (0): Dropout(p=0.1, inplace=False)
    (1): Linear(in_features=1324, out_features=300, bias=True)
    (2): ReLU()
    (3): Dropout(p=0.1, inplace=False)
    (4): Linear(in_features=300, out_features=1, bias=True)
  )
)
Number of parameters = 662,401
Epoch 0
Loss = 6.8029e-01, PNorm = 36.5950, GNorm = 2.3867, lr_0 = 1.0000e-03
Epoch 1
Epoch 2
Epoch 3
Epoch 4
Epoch 5
Epoch 6
Epoch 7
Epoch 8
Epoch 9
Epoch 10
Epoch 11
Epoch 12
Epoch 13
Epoch 14
Epoch 15
Epoch 16
Loss = 4.7806e-03, PNorm = 36.7353, GNorm = 0.0491, lr_0 = 2.6827e-04
Epoch 17
Loss = 4.5351e-03, PNorm = 36.7378, GNorm = 0.0684, lr_0 = 2.4709e-04
Epoch 18
Epoch 19
Epoch 20
Epoch 21
Epoch 22
Epoch 23
Epoch 24
Epoch 25
Epoch 26
Epoch 27
Epoch 28
Epoch 29
Training set size = 31
Pool set size = 191
Start an new iteration of active learning: 29.
Building model 0 from scratch
MoleculeModel(
  (sigmoid): Sigmoid()
  (encoder): MPN(
    (encoder): ModuleList(
      (0): MPNEncoder(
        (dropout_layer): Dropout(p=0.1, inplace=False)
        (act_func): ReLU()
        (W_i): Linear(in_features=147, out_features=300, bias=False)
        (W_h): Linear(in_features=300, out_features=300, bias=False)
        (W_o): Linear(in_features=433, out_features=300, bias=True)
      )
    )
  )
  (ffn): Sequential(
    (0): Dropout(p=0.1, inplace=False)
    (1): Linear(in_features=1324, out_features=300, bias=True)
    (2): ReLU()
    (3): Dropout(p=0.1, inplace=False)
    (4): Linear(in_features=300, out_features=1, bias=True)
  )
)
Number of parameters = 662,401
Epoch 0
Loss = 7.2246e-01, PNorm = 36.5950, GNorm = 2.4609, lr_0 = 1.0000e-03
Epoch 1
Epoch 2
Epoch 3
Epoch 4
Epoch 5
Epoch 6
Epoch 7
Epoch 8
Epoch 9
Epoch 10
Epoch 11
Epoch 12
Epoch 13
Epoch 14
Epoch 15
Epoch 16
Loss = 1.1775e-02, PNorm = 36.7315, GNorm = 0.2571, lr_0 = 2.6827e-04
Epoch 17
Epoch 18
Epoch 19
Epoch 20
Epoch 21
Epoch 22
Epoch 23
Epoch 24
Epoch 25
Epoch 26
Epoch 27
Epoch 28
Epoch 29
Training set size = 32
Pool set size = 190
Start an new iteration of active learning: 30.
evaluating model performance.
Building model 0 from scratch
MoleculeModel(
  (sigmoid): Sigmoid()
  (encoder): MPN(
    (encoder): ModuleList(
      (0): MPNEncoder(
        (dropout_layer): Dropout(p=0.1, inplace=False)
        (act_func): ReLU()
        (W_i): Linear(in_features=147, out_features=300, bias=False)
        (W_h): Linear(in_features=300, out_features=300, bias=False)
        (W_o): Linear(in_features=433, out_features=300, bias=True)
      )
    )
  )
  (ffn): Sequential(
    (0): Dropout(p=0.1, inplace=False)
    (1): Linear(in_features=1324, out_features=300, bias=True)
    (2): ReLU()
    (3): Dropout(p=0.1, inplace=False)
    (4): Linear(in_features=300, out_features=1, bias=True)
  )
)
Number of parameters = 662,401
Epoch 0
Loss = 7.8002e-01, PNorm = 36.5945, GNorm = 2.5872, lr_0 = 1.0000e-03
Epoch 1
Epoch 2
Epoch 3
Epoch 4
Epoch 5
Epoch 6
Epoch 7
Epoch 8
Epoch 9
Epoch 10
Epoch 11
Epoch 12
Epoch 13
Epoch 14
Epoch 15
Loss = 5.5545e-03, PNorm = 36.7150, GNorm = 0.0500, lr_0 = 2.9126e-04
Epoch 16
Loss = 6.5776e-03, PNorm = 36.7178, GNorm = 0.0721, lr_0 = 2.6827e-04
Epoch 17
Epoch 18
Epoch 19
Epoch 20
Epoch 21
Epoch 22
Epoch 23
Epoch 24
Epoch 25
Epoch 26
Epoch 27
Epoch 28
Epoch 29
evaluating model performance finished.
Training set size = 33
Pool set size = 189
Start an new iteration of active learning: 31.
Building model 0 from scratch
MoleculeModel(
  (sigmoid): Sigmoid()
  (encoder): MPN(
    (encoder): ModuleList(
      (0): MPNEncoder(
        (dropout_layer): Dropout(p=0.1, inplace=False)
        (act_func): ReLU()
        (W_i): Linear(in_features=147, out_features=300, bias=False)
        (W_h): Linear(in_features=300, out_features=300, bias=False)
        (W_o): Linear(in_features=433, out_features=300, bias=True)
      )
    )
  )
  (ffn): Sequential(
    (0): Dropout(p=0.1, inplace=False)
    (1): Linear(in_features=1324, out_features=300, bias=True)
    (2): ReLU()
    (3): Dropout(p=0.1, inplace=False)
    (4): Linear(in_features=300, out_features=1, bias=True)
  )
)
Number of parameters = 662,401
Epoch 0
Loss = 7.9109e-01, PNorm = 36.5946, GNorm = 2.4998, lr_0 = 1.0000e-03
Epoch 1
Epoch 2
Epoch 3
Epoch 4
Epoch 5
Epoch 6
Epoch 7
Epoch 8
Epoch 9
Epoch 10
Epoch 11
Epoch 12
Epoch 13
Epoch 14
Epoch 15
Loss = 7.8113e-03, PNorm = 36.7170, GNorm = 0.0828, lr_0 = 2.9126e-04
Epoch 16
Epoch 17
Epoch 18
Epoch 19
Epoch 20
Epoch 21
Epoch 22
Epoch 23
Epoch 24
Epoch 25
Epoch 26
Epoch 27
Epoch 28
Epoch 29
Training set size = 34
Pool set size = 188
Start an new iteration of active learning: 32.
Building model 0 from scratch
MoleculeModel(
  (sigmoid): Sigmoid()
  (encoder): MPN(
    (encoder): ModuleList(
      (0): MPNEncoder(
        (dropout_layer): Dropout(p=0.1, inplace=False)
        (act_func): ReLU()
        (W_i): Linear(in_features=147, out_features=300, bias=False)
        (W_h): Linear(in_features=300, out_features=300, bias=False)
        (W_o): Linear(in_features=433, out_features=300, bias=True)
      )
    )
  )
  (ffn): Sequential(
    (0): Dropout(p=0.1, inplace=False)
    (1): Linear(in_features=1324, out_features=300, bias=True)
    (2): ReLU()
    (3): Dropout(p=0.1, inplace=False)
    (4): Linear(in_features=300, out_features=1, bias=True)
  )
)
Number of parameters = 662,401
Epoch 0
Loss = 7.5934e-01, PNorm = 36.5945, GNorm = 2.4304, lr_0 = 1.0000e-03
Epoch 1
Epoch 2
Epoch 3
Epoch 4
Epoch 5
Epoch 6
Epoch 7
Epoch 8
Epoch 9
Epoch 10
Epoch 11
Epoch 12
Epoch 13
Epoch 14
Loss = 6.1108e-03, PNorm = 36.7168, GNorm = 0.0591, lr_0 = 3.1623e-04
Epoch 15
Loss = 6.5815e-03, PNorm = 36.7202, GNorm = 0.0563, lr_0 = 2.9126e-04
…
Loss = 9.9912e-03, PNorm = 36.7293, GNorm = 0.1287, lr_0 = 3.1623e-04
Epoch 15
Epoch 16
Epoch 17
Epoch 18
Epoch 19
Epoch 20
Epoch 21
Epoch 22
Epoch 23
Epoch 24
Epoch 25
Epoch 26
Epoch 27
Loss = 2.3939e-03, PNorm = 36.7502, GNorm = 0.0299, lr_0 = 1.0857e-04
Epoch 28
Loss = 3.6864e-03, PNorm = 36.7506, GNorm = 0.0483, lr_0 = 1.0000e-04
Epoch 29
Training set size = 37
Pool set size = 185
Start an new iteration of active learning: 35.
Building model 0 from scratch
MoleculeModel(
  (sigmoid): Sigmoid()
  (encoder): MPN(
    (encoder): ModuleList(
      (0): MPNEncoder(
        (dropout_layer): Dropout(p=0.1, inplace=False)
        (act_func): ReLU()
        (W_i): Linear(in_features=147, out_features=300, bias=False)
        (W_h): Linear(in_features=300, out_features=300, bias=False)
        (W_o): Linear(in_features=433, out_features=300, bias=True)
      )
    )
  )
  (ffn): Sequential(
    (0): Dropout(p=0.1, inplace=False)
    (1): Linear(in_features=1324, out_features=300, bias=True)
    (2): ReLU()
    (3): Dropout(p=0.1, inplace=False)
    (4): Linear(in_features=300, out_features=1, bias=True)
  )
)
Number of parameters = 662,401
Epoch 0
Loss = 6.8615e-01, PNorm = 36.5954, GNorm = 2.3431, lr_0 = 1.0000e-03
Epoch 1
Epoch 2
Epoch 3
Epoch 4
Epoch 5
Epoch 6
Epoch 7
Epoch 8
Epoch 9
Epoch 10
Epoch 11
Epoch 12
Epoch 13
Loss = 5.3404e-03, PNorm = 36.7280, GNorm = 0.0459, lr_0 = 3.4333e-04
Epoch 14
Epoch 15
Epoch 16
Epoch 17
Epoch 18
Epoch 19
Epoch 20
Epoch 21
Epoch 22
Epoch 23
Epoch 24
Epoch 25
Epoch 26
Epoch 27
Loss = 2.6596e-03, PNorm = 36.7542, GNorm = 0.0267, lr_0 = 1.0857e-04
Epoch 28
Epoch 29
Training set size = 38
Pool set size = 184
Start an new iteration of active learning: 36.
Building model 0 from scratch
MoleculeModel(
  (sigmoid): Sigmoid()
  (encoder): MPN(
    (encoder): ModuleList(
      (0): MPNEncoder(
        (dropout_layer): Dropout(p=0.1, inplace=False)
        (act_func): ReLU()
        (W_i): Linear(in_features=147, out_features=300, bias=False)
        (W_h): Linear(in_features=300, out_features=300, bias=False)
        (W_o): Linear(in_features=433, out_features=300, bias=True)
      )
    )
  )
  (ffn): Sequential(
    (0): Dropout(p=0.1, inplace=False)
    (1): Linear(in_features=1324, out_features=300, bias=True)
    (2): ReLU()
    (3): Dropout(p=0.1, inplace=False)
    (4): Linear(in_features=300, out_features=1, bias=True)
  )
)
Number of parameters = 662,401
Epoch 0
Loss = 7.3392e-01, PNorm = 36.5949, GNorm = 2.3148, lr_0 = 1.0000e-03
Epoch 1
Epoch 2
Epoch 3
Epoch 4
Epoch 5
Epoch 6
Epoch 7
Epoch 8
Epoch 9
Epoch 10
Epoch 11
Epoch 12
Epoch 13
Loss = 8.6276e-03, PNorm = 36.7204, GNorm = 0.0763, lr_0 = 3.4333e-04
Epoch 14
Epoch 15
Epoch 16
Epoch 17
Epoch 18
Epoch 19
Epoch 20
Epoch 21
Epoch 22
Epoch 23
Epoch 24
Epoch 25
Epoch 26
Loss = 3.1394e-03, PNorm = 36.7458, GNorm = 0.0369, lr_0 = 1.1788e-04
Epoch 27
Epoch 28
Epoch 29
Training set size = 39
Pool set size = 183
Start an new iteration of active learning: 37.
Building model 0 from scratch
MoleculeModel(
  (sigmoid): Sigmoid()
  (encoder): MPN(
    (encoder): ModuleList(
      (0): MPNEncoder(
        (dropout_layer): Dropout(p=0.1, inplace=False)
        (act_func): ReLU()
        (W_i): Linear(in_features=147, out_features=300, bias=False)
        (W_h): Linear(in_features=300, out_features=300, bias=False)
        (W_o): Linear(in_features=433, out_features=300, bias=True)
      )
    )
  )
  (ffn): Sequential(
    (0): Dropout(p=0.1, inplace=False)
    (1): Linear(in_features=1324, out_features=300, bias=True)
    (2): ReLU()
    (3): Dropout(p=0.1, inplace=False)
    (4): Linear(in_features=300, out_features=1, bias=True)
  )
)
Number of parameters = 662,401
Epoch 0
Loss = 7.9322e-01, PNorm = 36.5943, GNorm = 2.4311, lr_0 = 1.0000e-03
Epoch 1
Epoch 2
Epoch 3
Epoch 4
Epoch 5
Epoch 6
Epoch 7
Epoch 8
Epoch 9
Epoch 10
Epoch 11
Epoch 12
Loss = 1.1951e-02, PNorm = 36.7184, GNorm = 0.1032, lr_0 = 3.7276e-04
Epoch 13
Loss = 7.0610e-03, PNorm = 36.7236, GNorm = 0.0667, lr_0 = 3.4333e-04
…
Loss = 1.1435e-02, PNorm = 36.7215, GNorm = 0.0935, lr_0 = 3.7276e-04
Epoch 13
Epoch 14
Epoch 15
Epoch 16
Epoch 17
Epoch 18
Epoch 19
Epoch 20
Epoch 21
Epoch 22
Epoch 23
Loss = 3.8199e-03, PNorm = 36.7517, GNorm = 0.0341, lr_0 = 1.5086e-04
Epoch 24
Epoch 25
Epoch 26
Epoch 27
Epoch 28
Epoch 29
evaluating model performance finished.
Training set size = 43
Pool set size = 179
Start an new iteration of active learning: 41.
Building model 0 from scratch
MoleculeModel(
  (sigmoid): Sigmoid()
  (encoder): MPN(
    (encoder): ModuleList(
      (0): MPNEncoder(
        (dropout_layer): Dropout(p=0.1, inplace=False)
        (act_func): ReLU()
        (W_i): Linear(in_features=147, out_features=300, bias=False)
        (W_h): Linear(in_features=300, out_features=300, bias=False)
        (W_o): Linear(in_features=433, out_features=300, bias=True)
      )
    )
  )
  (ffn): Sequential(
    (0): Dropout(p=0.1, inplace=False)
    (1): Linear(in_features=1324, out_features=300, bias=True)
    (2): ReLU()
    (3): Dropout(p=0.1, inplace=False)
    (4): Linear(in_features=300, out_features=1, bias=True)
  )
)
Number of parameters = 662,401
Epoch 0
Loss = 8.0077e-01, PNorm = 36.5944, GNorm = 2.4267, lr_0 = 1.0000e-03
Epoch 1
Epoch 2
Epoch 3
Epoch 4
Epoch 5
Epoch 6
Epoch 7
Epoch 8
Epoch 9
Epoch 10
Epoch 11
Loss = 9.8516e-03, PNorm = 36.7118, GNorm = 0.0817, lr_0 = 4.0471e-04
Epoch 12
Epoch 13
Epoch 14
Epoch 15
Epoch 16
Epoch 17
Epoch 18
Epoch 19
Epoch 20
Epoch 21
Epoch 22
Epoch 23
Loss = 5.2828e-03, PNorm = 36.7467, GNorm = 0.0531, lr_0 = 1.5086e-04
Epoch 24
Epoch 25
Epoch 26
Epoch 27
Epoch 28
Epoch 29
Training set size = 44
Pool set size = 178
Start an new iteration of active learning: 42.
Building model 0 from scratch
MoleculeModel(
  (sigmoid): Sigmoid()
  (encoder): MPN(
    (encoder): ModuleList(
      (0): MPNEncoder(
        (dropout_layer): Dropout(p=0.1, inplace=False)
        (act_func): ReLU()
        (W_i): Linear(in_features=147, out_features=300, bias=False)
        (W_h): Linear(in_features=300, out_features=300, bias=False)
        (W_o): Linear(in_features=433, out_features=300, bias=True)
      )
    )
  )
  (ffn): Sequential(
    (0): Dropout(p=0.1, inplace=False)
    (1): Linear(in_features=1324, out_features=300, bias=True)
    (2): ReLU()
    (3): Dropout(p=0.1, inplace=False)
    (4): Linear(in_features=300, out_features=1, bias=True)
  )
)
Number of parameters = 662,401
Epoch 0
Loss = 7.9241e-01, PNorm = 36.5950, GNorm = 2.4458, lr_0 = 1.0000e-03
Epoch 1
Epoch 2
Epoch 3
Epoch 4
Epoch 5
Epoch 6
Epoch 7
Epoch 8
Epoch 9
Epoch 10
Epoch 11
Loss = 1.4199e-02, PNorm = 36.7092, GNorm = 0.1101, lr_0 = 4.0471e-04
Epoch 12
Epoch 13
Epoch 14
Epoch 15
Epoch 16
Epoch 17
Epoch 18
Epoch 19
Epoch 20
Epoch 21
Epoch 22
Loss = 4.3808e-03, PNorm = 36.7421, GNorm = 0.0470, lr_0 = 1.6379e-04
Epoch 23
Epoch 24
Epoch 25
Epoch 26
Epoch 27
Epoch 28
Epoch 29
Training set size = 45
Pool set size = 177
Start an new iteration of active learning: 43.
Building model 0 from scratch
MoleculeModel(
  (sigmoid): Sigmoid()
  (encoder): MPN(
    (encoder): ModuleList(
      (0): MPNEncoder(
        (dropout_layer): Dropout(p=0.1, inplace=False)
        (act_func): ReLU()
        (W_i): Linear(in_features=147, out_features=300, bias=False)
        (W_h): Linear(in_features=300, out_features=300, bias=False)
        (W_o): Linear(in_features=433, out_features=300, bias=True)
      )
    )
  )
  (ffn): Sequential(
    (0): Dropout(p=0.1, inplace=False)
    (1): Linear(in_features=1324, out_features=300, bias=True)
    (2): ReLU()
    (3): Dropout(p=0.1, inplace=False)
    (4): Linear(in_features=300, out_features=1, bias=True)
  )
)
Number of parameters = 662,401
Epoch 0
Loss = 8.0026e-01, PNorm = 36.5946, GNorm = 2.3907, lr_0 = 1.0000e-03
Epoch 1
Epoch 2
Epoch 3
Epoch 4
Epoch 5
Epoch 6
Epoch 7
Epoch 8
Epoch 9
Epoch 10
Epoch 11
Loss = 1.2423e-02, PNorm = 36.7153, GNorm = 0.1038, lr_0 = 4.0471e-04
Epoch 12
Epoch 13
Epoch 14
Epoch 15
Epoch 16
Epoch 17
Epoch 18
Epoch 19
Epoch 20
Epoch 21
Epoch 22
Loss = 4.0260e-03, PNorm = 36.7497, GNorm = 0.0492, lr_0 = 1.6379e-04
Epoch 23
Epoch 24
Epoch 25
Epoch 26
Epoch 27
Epoch 28
Epoch 29
Training set size = 46
Pool set size = 176
Start an new iteration of active learning: 44.
Building model 0 from scratch
MoleculeModel(
  (sigmoid): Sigmoid()
  (encoder): MPN(
    (encoder): ModuleList(
      (0): MPNEncoder(
        (dropout_layer): Dropout(p=0.1, inplace=False)
        (act_func): ReLU()
        (W_i): Linear(in_features=147, out_features=300, bias=False)
        (W_h): Linear(in_features=300, out_features=300, bias=False)
        (W_o): Linear(in_features=433, out_features=300, bias=True)
      )
    )
  )
  (ffn): Sequential(
    (0): Dropout(p=0.1, inplace=False)
    (1): Linear(in_features=1324, out_features=300, bias=True)
    (2): ReLU()
    (3): Dropout(p=0.1, inplace=False)
    (4): Linear(in_features=300, out_features=1, bias=True)
  )
)
Number of parameters = 662,401
Epoch 0
Loss = 8.1008e-01, PNorm = 36.5939, GNorm = 2.4092, lr_0 = 1.0000e-03
Epoch 1
Epoch 2
Epoch 3
Epoch 4
Epoch 5
Epoch 6
Epoch 7
Epoch 8
Epoch 9
Epoch 10
Loss = 1.5301e-02, PNorm = 36.7131, GNorm = 0.1366, lr_0 = 4.3940e-04
Epoch 11
Epoch 12
Epoch 13
Epoch 14
Epoch 15
Epoch 16
Epoch 17
Epoch 18
Epoch 19
Epoch 20
Epoch 21
Loss = 5.1074e-03, PNorm = 36.7542, GNorm = 0.0897, lr_0 = 1.7783e-04
Epoch 22
Epoch 23
Epoch 24
Epoch 25
Epoch 26
Epoch 27
Epoch 28
Epoch 29
Training set size = 47
Pool set size = 175
Start an new iteration of active learning: 45.
Building model 0 from scratch
MoleculeModel(
  (sigmoid): Sigmoid()
  (encoder): MPN(
    (encoder): ModuleList(
      (0): MPNEncoder(
        (dropout_layer): Dropout(p=0.1, inplace=False)
        (act_func): ReLU()
        (W_i): Linear(in_features=147, out_features=300, bias=False)
        (W_h): Linear(in_features=300, out_features=300, bias=False)
        (W_o): Linear(in_features=433, out_features=300, bias=True)
      )
    )
  )
  (ffn): Sequential(
    (0): Dropout(p=0.1, inplace=False)
    (1): Linear(in_features=1324, out_features=300, bias=True)
    (2): ReLU()
    (3): Dropout(p=0.1, inplace=False)
    (4): Linear(in_features=300, out_features=1, bias=True)
  )
)
Number of parameters = 662,401
Epoch 0
Loss = 7.0775e-01, PNorm = 36.5950, GNorm = 2.2335, lr_0 = 1.0000e-03
Epoch 1
Epoch 2
Epoch 3
Epoch 4
Epoch 5
Epoch 6
Epoch 7
Epoch 8
Epoch 9
Epoch 10
Loss = 2.0791e-02, PNorm = 36.6998, GNorm = 0.2325, lr_0 = 4.3940e-04
Epoch 11
Epoch 12
Epoch 13
Epoch 14
Epoch 15
Epoch 16
Epoch 17
Epoch 18
Epoch 19
Epoch 20
Epoch 21
Loss = 4.3180e-03, PNorm = 36.7363, GNorm = 0.0351, lr_0 = 1.7783e-04
Epoch 22
Epoch 23
Epoch 24
Epoch 25
Epoch 26
Epoch 27
Epoch 28
Epoch 29
Training set size = 48
Pool set size = 174
Start an new iteration of active learning: 46.
Building model 0 from scratch
MoleculeModel(
  (sigmoid): Sigmoid()
  (encoder): MPN(
    (encoder): ModuleList(
      (0): MPNEncoder(
        (dropout_layer): Dropout(p=0.1, inplace=False)
        (act_func): ReLU()
        (W_i): Linear(in_features=147, out_features=300, bias=False)
        (W_h): Linear(in_features=300, out_features=300, bias=False)
        (W_o): Linear(in_features=433, out_features=300, bias=True)
      )
    )
  )
  (ffn): Sequential(
    (0): Dropout(p=0.1, inplace=False)
    (1): Linear(in_features=1324, out_features=300, bias=True)
    (2): ReLU()
    (3): Dropout(p=0.1, inplace=False)
    (4): Linear(in_features=300, out_features=1, bias=True)
  )
)
Number of parameters = 662,401
Epoch 0
Loss = 7.3664e-01, PNorm = 36.5950, GNorm = 2.2424, lr_0 = 1.0000e-03
Epoch 1
Epoch 2
Epoch 3
Epoch 4
Epoch 5
Epoch 6
Epoch 7
Epoch 8
Epoch 9
Epoch 10
Loss = 8.7196e-03, PNorm = 36.7186, GNorm = 0.0712, lr_0 = 4.3940e-04
Epoch 11
Epoch 12
Epoch 13
Epoch 14
Epoch 15
Epoch 16
Epoch 17
Epoch 18
Epoch 19
Epoch 20
Loss = 2.9559e-03, PNorm = 36.7566, GNorm = 0.0317, lr_0 = 1.9307e-04
Epoch 21
Epoch 22
Epoch 23
Epoch 24
Epoch 25
Epoch 26
Epoch 27
Epoch 28
Epoch 29
Training set size = 49
Pool set size = 173
Start an new iteration of active learning: 47.
Building model 0 from scratch
MoleculeModel(
  (sigmoid): Sigmoid()
  (encoder): MPN(
    (encoder): ModuleList(
      (0): MPNEncoder(
        (dropout_layer): Dropout(p=0.1, inplace=False)
        (act_func): ReLU()
        (W_i): Linear(in_features=147, out_features=300, bias=False)
        (W_h): Linear(in_features=300, out_features=300, bias=False)
        (W_o): Linear(in_features=433, out_features=300, bias=True)
      )
    )
  )
  (ffn): Sequential(
    (0): Dropout(p=0.1, inplace=False)
    (1): Linear(in_features=1324, out_features=300, bias=True)
    (2): ReLU()
    (3): Dropout(p=0.1, inplace=False)
    (4): Linear(in_features=300, out_features=1, bias=True)
  )
)
Number of parameters = 662,401
Epoch 0
Loss = 7.8555e-01, PNorm = 36.5944, GNorm = 2.4224, lr_0 = 1.0000e-03
Epoch 1
Epoch 2
Epoch 3
Epoch 4
Epoch 5
Epoch 6
Epoch 7
Epoch 8
Epoch 9
Epoch 10
Loss = 1.2662e-02, PNorm = 36.7090, GNorm = 0.0979, lr_0 = 4.3940e-04
Epoch 11
Epoch 12
Epoch 13
Epoch 14
Epoch 15
Epoch 16
Epoch 17
Epoch 18
Epoch 19
Epoch 20
Loss = 2.8462e-03, PNorm = 36.7472, GNorm = 0.0272, lr_0 = 1.9307e-04
Epoch 21
Epoch 22
Epoch 23
Epoch 24
Epoch 25
Epoch 26
Epoch 27
Epoch 28
Epoch 29
Training set size = 50
Pool set size = 172
Start an new iteration of active learning: 48.
Building model 0 from scratch
MoleculeModel(
  (sigmoid): Sigmoid()
  (encoder): MPN(
    (encoder): ModuleList(
      (0): MPNEncoder(
        (dropout_layer): Dropout(p=0.1, inplace=False)
        (act_func): ReLU()
        (W_i): Linear(in_features=147, out_features=300, bias=False)
        (W_h): Linear(in_features=300, out_features=300, bias=False)
        (W_o): Linear(in_features=433, out_features=300, bias=True)
      )
    )
  )
  (ffn): Sequential(
    (0): Dropout(p=0.1, inplace=False)
    (1): Linear(in_features=1324, out_features=300, bias=True)
    (2): ReLU()
    (3): Dropout(p=0.1, inplace=False)
    (4): Linear(in_features=300, out_features=1, bias=True)
  )
)
Number of parameters = 662,401
Epoch 0
Epoch 1
Epoch 2
Epoch 3
Epoch 4
Epoch 5
Epoch 6
Epoch 7
Epoch 8
Epoch 9
Loss = 2.0837e-02, PNorm = 36.7071, GNorm = 0.2592, lr_0 = 4.7706e-04
Epoch 10
Epoch 11
Epoch 12
Epoch 13
Epoch 14
Epoch 15
Epoch 16
Epoch 17
Epoch 18
Epoch 19
Loss = 4.7902e-03, PNorm = 36.7506, GNorm = 0.0490, lr_0 = 2.0962e-04
Epoch 20
Epoch 21
Epoch 22
Epoch 23
Epoch 24
Epoch 25
Epoch 26
Epoch 27
Epoch 28
Epoch 29
Loss = 2.1611e-03, PNorm = 36.7597, GNorm = 0.0191, lr_0 = 1.0000e-04
Training set size = 51
Pool set size = 171
Start an new iteration of active learning: 49.
Building model 0 from scratch
MoleculeModel(
  (sigmoid): Sigmoid()
  (encoder): MPN(
    (encoder): ModuleList(
      (0): MPNEncoder(
        (dropout_layer): Dropout(p=0.1, inplace=False)
        (act_func): ReLU()
        (W_i): Linear(in_features=147, out_features=300, bias=False)
        (W_h): Linear(in_features=300, out_features=300, bias=False)
        (W_o): Linear(in_features=433, out_features=300, bias=True)
      )
    )
  )
  (ffn): Sequential(
    (0): Dropout(p=0.1, inplace=False)
    (1): Linear(in_features=1324, out_features=300, bias=True)
    (2): ReLU()
    (3): Dropout(p=0.1, inplace=False)
    (4): Linear(in_features=300, out_features=1, bias=True)
  )
)
Number of parameters = 662,401
Epoch 0
Epoch 1
Epoch 2
Epoch 3
Epoch 4
Epoch 5
Epoch 6
Epoch 7
Epoch 8
Epoch 9
Loss = 2.8044e-02, PNorm = 36.6821, GNorm = 0.2372, lr_0 = 2.2758e-04
Loss = 9.3415e-02, PNorm = 36.6834, GNorm = 2.4872, lr_0 = 2.0962e-04
Epoch 10
Epoch 11
Epoch 12
Epoch 13
Epoch 14
Epoch 15
Epoch 16
Epoch 17
Epoch 18
Epoch 19
Loss = 1.4316e-02, PNorm = 36.6940, GNorm = 0.0976, lr_0 = 1.0000e-04
…
